…
4709/4708 [==============================] - 842s 179ms/step - loss: 0.4237 - acc: 0.9327 - val_loss: 0.3863 - val_acc: 0.9443
Epoch 31/100
4709/4708 [==============================] - 848s 180ms/step - loss: 0.4177 - acc: 0.9337 - val_loss: 0.3744 - val_acc: 0.9463



Allora al momento sono arrivato a questo risultato:

Epoch 32/100 train_loss: 0.4195 - train_acc: 0.9347 - val_loss: 0.3492 - val_acc: 0.9554




Using TensorFlow backend.
_________________________________________________________________
Layer (type)                 Output Shape              Param #   
=================================================================
conv2d_1 (Conv2D)            (None, 61, 61, 64)        1088      
_________________________________________________________________
conv2d_2 (Conv2D)            (None, 58, 58, 64)        65600     
_________________________________________________________________
max_pooling2d_1 (MaxPooling2 (None, 29, 29, 64)        0         
_________________________________________________________________
dropout_1 (Dropout)          (None, 29, 29, 64)        0         
_________________________________________________________________
conv2d_3 (Conv2D)            (None, 26, 26, 128)       131200    
_________________________________________________________________
conv2d_4 (Conv2D)            (None, 23, 23, 128)       262272    
_________________________________________________________________
max_pooling2d_2 (MaxPooling2 (None, 11, 11, 128)       0         
_________________________________________________________________
dropout_2 (Dropout)          (None, 11, 11, 128)       0         
_________________________________________________________________
conv2d_5 (Conv2D)            (None, 8, 8, 256)         524544    
_________________________________________________________________
conv2d_6 (Conv2D)            (None, 5, 5, 256)         1048832   
_________________________________________________________________
max_pooling2d_3 (MaxPooling2 (None, 2, 2, 256)         0         
_________________________________________________________________
dropout_3 (Dropout)          (None, 2, 2, 256)         0         
_________________________________________________________________
flatten_1 (Flatten)          (None, 1024)              0         
_________________________________________________________________
dense_1 (Dense)              (None, 512)               524800    
_________________________________________________________________
dropout_4 (Dropout)          (None, 512)               0         
_________________________________________________________________
dense_2 (Dense)              (None, 8)                 4104      



 val_loss: 0.3131 - val_acc: 0.9625
 Accuracy: 0.9609810479375697


Test loss: 0.32507004724785726
Test accuracy: 0.957698501176762


                     RBB       PVC       LBB       NOR       VFW       VEB       APC       PAB
           RBB    1221.0       4.0       0.0       0.0       0.0       0.0       4.0       2.0
           PVC       6.0    5064.0      23.0       1.0       0.0       0.0       0.0      26.0
…
